model_keras/model_keras.tflite (tflite, 746084 bytes, 16 tensors)

sequential_2/conv2d_12/BiasAdd/ReadVariableOp/resource f4 [32]
-0.023038842 -0.03778648 -0.0111735 0.07237153 -0.10746415 -0.09644479 -0.033504836 0.016643241
0.1002183 0.011109153 -0.08287042 0.15620059 0.02316137 -0.04845238 -0.05735636 -0.04158969
-0.15703297 0.023807649 -0.09166683 0.026939781 -0.035829816 -0.024610639 -0.04388994 -0.02863247
-0.020179933 0.09222745 0.09926934 0.06747809 -0.04435195 0.087126076 -0.034621924 0.12860607
00000000: f4bb bcbc ffc5 1abd 0e11 37bc 8637 943d
00000010: 2a16 dcbd d984 c5bd 5e3c 09bd 6857 883c
00000020: 413f cd3d 2a03 363c f7b7 a9bd 0cf3 1f3e
00000030: eabc bd3c 0176 46bd 81ee 6abd f359 2abd
00000040: 40cd 20be 4208 c33c d2bb bbbd d1b0 dc3c
00000050: 49c2 12bd 409c c9bc f0c5 33bd a48e eabc
00000060: 6350 a5bc bfe1 bc3d b94d cb3d f431 8a3d
00000070: 64aa 35bd 286f b23d b8cf 0dbd 4fb1 033e

sequential_2/conv2d_13/BiasAdd/ReadVariableOp/resource f4 [64]
-0.06493544 -0.058897976 -0.06676973 -0.08862941 -0.07299733 -0.038303614 -0.13697484 -0.123749815
-0.0307767 0.07627473 -0.12664223 -0.048133384 -0.16434266 0.04963395 -0.05073256 -0.10844648
0.0023919581 -0.055983078 -0.12231386 -0.17029212 -0.20396805 -0.07779941 0.12586282 0.067967266
-0.041881494 -0.10348403 -0.08910542 -0.21097885 0.01694628 -0.07472103 -0.12845053 -0.02245992
-0.035394035 -0.062464505 -0.05441221 -0.028542697 -0.0134955095 -0.10778686 -0.060227424 -0.16902822
-0.043520186 -0.17448175 -0.027146358 -0.15767777 -0.025680983 -0.1516343 -0.08703225 -0.037372034
-0.16302912 -0.04907939 -0.05362252 -0.10538266 -0.06376278 -0.03515351 0.05360685 -0.119702
0.045260668 0.01218158 -0.058431275 -0.06998426 -0.1677788 -0.1750611 -0.054321583 0.115646906
00000000: dffc 84bd 013f 71bd 91be 88bd 5683 b5bd
00000010: a07f 95bd 40e4 1cbd 2243 0cbe 8b70 fdbd
00000020: 6b1f fcbc ed35 9c3d 80ae 01be 8327 45bd
00000030: 7149 28be f84c 4b3d f2cc 4fbd 3019 debd
00000040: 66c2 1c3b 834e 65bd b07f fabd 0f61 2ebe
00000050: 00dd 50be 4c55 9fbd 2fe2 003e 6c32 8b3d
00000060: ee8b 2bbd 6fef d3bd e77c b6bd d70a 58be
00000070: edd2 8a3c 5707 99bd 8988 03be defd b7bc
00000080: 56f9 10bd c8da 7fbd 56df 5ebd 60d2 e9bc
00000090: 451c 5dbc 5bbf dcbd 08b1 76bd bc15 2dbe
000000a0: 3942 32bd 58ab 32be 0a62 debc 4876 21be
000000b0: ed60 d2bc 0646 1bbe f73d b2bd 6b13 19bd
000000c0: 1bf1 26be 7807 49bd 4aa3 5bbd ddd2 d7bd
000000d0: 0f96 82bd 20fd 0fbd db92 5b3d 5226 f5bd
000000e0: 4063 393d 4095 473c a255 6fbd e853 8fbd
000000f0: 35ce 2bbe 3843 33be 4f80 5ebd 49d8 ec3d

sequential_2/conv2d_14/BiasAdd/ReadVariableOp/resource f4 [64]
0.14208785 -0.087033845 -0.10444096 0.09888794 -0.12623484 -0.08114242 -0.11274775 0.014710392
-0.13535745 0.0915465 -0.06322359 -0.016565934 -0.0043624435 0.05797568 -0.069535844 0.17101915
-0.113557436 0.08566687 -0.061104547 0.19106168 -0.023635931 0.073233604 0.08399177 -0.017752817
-0.01786582 -0.022073042 -0.025336688 0.02374153 0.05175127 -0.04866174 -0.18399033 -0.10323159
0.06902758 -0.07759267 -0.06151611 -0.12731683 -0.021153428 -0.100767076 -0.16470563 -0.07801187
-0.02106684 -0.13055001 -0.115296505 0.08265817 -0.05673526 0.111249425 -0.15052074 0.06262522
0.20261906 -0.0043729297 0.23656544 -0.25210017 -0.078849815 -0.0020853286 -0.15993892 -0.021069903
-0.043720018 -0.13073218 -0.08922716 -0.09562058 0.09206984 -0.0744842 -0.19433786 0.100849696
00000000: 7a7f 113e cd3e b2bd 24e5 d5bd c385 ca3d
00000010: b543 01be ff2d a6bd 4be8 e6bd db03 713c
00000020: 259b 0abe bb7c bb3d 5f7b 81bd 48b5 87bc
00000030: d4f2 8ebb e877 6d3d cf68 8ebd a51f 2f3e
00000040: cd90 e8bd 1d72 af3d c348 7abd aca5 433e
00000050: 24a0 c1bc 80fb 953d e103 ac3d 5b6e 91bc
00000060: 575b 92bc 86d2 b4bc e38e cfbc 997d c23c
00000070: 24f9 533d 8851 47bd f667 3cbe 156b d3bd
00000080: 555e 8d3d e8e8 9ebd 51f8 7bbd 585f 02be
00000090: f449 adbc f85e cebd 98a8 28be b0c4 9fbd
000000a0: 5e94 acbc e7ae 05be 9320 ecbd b048 a93d
000000b0: 3b63 68bd bdd6 e33d 1c22 1abe a741 803d
000000c0: 5f7b 4f3e cb4a 8fbb 363e 723e 4613 81be
000000d0: 037c a1bd 02aa 08bb 07c7 23be ca9a acbc
000000e0: c313 33bd a8de 05be bbbc b6bd b9d4 c3bd
000000f0: 1d8f bc3d 2c8b 98bd 8100 47be 498a ce3d

sequential_2/conv2d_15/BiasAdd/ReadVariableOp/resource f4 [64]
-0.03322761 0.021847181 0.05209433 -0.08759701 0.011785691 0.07370883 -0.01704677 0.03872125
-0.023381133 -0.0781479 -0.054535173 -0.13747638 -0.08355402 -0.03818369 -0.11063654 -0.021145932
0.0115188975 -0.10753999 -0.045799386 -0.15039012 -0.025582941 -0.020945806 -0.018210508 0.047947485
-0.16224022 -0.07983409 0.0054701488 -0.055867784 -0.06616918 -0.12622213 -0.042868532 -0.16716012
-0.062644236 -0.0229339 -0.05882806 0.12937783 0.10858541 0.1896838 0.06142798 0.0739194
0.052937567 -0.100452326 -0.013823015 0.024438474 -0.056018226 -0.0617451 -0.07532999 -0.16879427
-0.14529473 0.1009269 -0.114093244 -0.1156396 -0.014270498 0.056200877 -0.19842623 0.091579504
0.07933661 -0.09866298 0.030159436 -0.11885104 0.10222633 -0.043439355 0.056175478 -0.07964172
00000000: ad19 08bd dcf8 b23c dd60 553d 1066 b3bd
00000010: c518 413c a8f4 963d aba5 8bbc 2c9a 1e3d
00000020: ca89 bfbc 020c a0bd 4660 5fbd 9cc6 0cbe
00000030: 5f1e abbd 8066 1cbd 6995 e2bd 3c3a adbc
00000040: c2b9 3c3c ed3d dcbd 2398 3bbd deff 19be
00000050: 5193 d1bc 8a96 abbc 342e 95bc 9564 443d
00000060: 4d22 26be 0e80 a3bd ef3e b33b 9ed5 64bd
00000070: b583 87bd 6040 01be ea96 2fbd 062c 2bbe
00000080: 9f4b 80bd e0df bbbc b1f5 70bd 9f7b 043e
00000090: 0762 de3d 783c 423e e89b 7b3d 0e63 973d
000000a0: 10d5 583d f3b9 cdbd ed79 62bc 3233 c83c
000000b0: 5e73 65bd 6ee8 7cbd 9c46 9abd 68d8 2cbe
000000c0: 24c8 14be c3b2 ce3d b8a9 e9bd 74d4 ecbd
000000d0: cfce 69bc e432 663d 3f30 4bbe 098e bb3d
000000e0: 3c7b a23d d10f cabd ec10 f73c 2d68 f3bd
000000f0: 0a5c d13d 77ed 31bd 4218 663d 331b a3bd

sequential_2/conv2d_16/BiasAdd/ReadVariableOp/resource f4 [64]
0.0982428 0.20780157 -0.01055357 -0.055613153 0.08836333 -0.1001673 0.14142598 -0.07302533
-0.14944386 0.013719336 0.039946254 -0.154326 -0.079418436 -0.020467047 -0.095748335 -0.12939884
0.054105677 -0.06770172 -0.038160942 -0.0064963577 -0.21590577 -0.046409365 -0.0268162 -0.010163174
0.002865505 0.0004975054 -0.041855235 0.042624988 -0.06967639 -0.05058501 -0.124046266 -0.0044378247
-0.034378607 -0.0687535 -0.046216067 0.056191448 0.0037338748 -0.104154356 0.027633147 0.054338414
0.048041828 -0.14790219 0.017500587 0.02935598 -0.12305442 -0.08593586 0.09246185 -0.06334324
-0.0050894963 -0.13110285 0.029720232 0.008467018 -0.20375527 -0.1545791 -0.0036536024 -0.07737097
-0.0009012333 -0.037205316 -0.06453601 0.020684905 0.041862033 -0.0023244976 0.09706503 -0.06750821
00000000: 8533 c93d efc9 543e e2e8 2cbc 9eca 63bd
00000010: d5f7 b43d 8324 cdbd f9d1 103e 4e8e 95bd
00000020: d007 19be 11c7 603c af9e 233d a307 1ebe
00000030: 22a6 a2bd 82aa a7bc b417 c4bd 2181 04be
00000040: ea9d 5d3d 33a7 8abd a64e 1cbd 66df d4bb
00000050: 6716 5dbe bf17 3ebd a6ad dbbc 7183 26bc
00000060: 32cb 3b3b 066b 023a 6570 2bbd 8a97 2e3d
00000070: 7fb2 8ebd 3a32 4fbd f80b febd 2c6b 91bb
00000080: 95d0 0cbd a3ce 8cbd 0f4d 3dbd 0129 663d
00000090: 06b4 743b e14e d5bd e95e e23c f591 5e3d
000000a0: 82c7 443d ac73 17be 645d 8f3c f47b f03c
000000b0: f503 fcbd 24ff afbd a35c bd3d 1aba 81bd
000000c0: cac5 a6bb d33f 06be d877 f33c 3fb9 0a3c
000000d0: 39a5 50be fc49 1ebe 4771 6fbb ac74 9ebd
000000e0: be40 6cba 9a64 18bd 752b 84bd 6473 a93c
000000f0: 8677 2b3d 9956 18bb 08ca c63d bf41 8abd

sequential_2/conv2d_17/BiasAdd/ReadVariableOp/resource f4 [64]
-0.02824303 0.06348539 0.006766009 -0.1611377 -0.009844128 -0.013023198 0.027303455 0.036376216
0.07960588 -0.15306897 0.05615056 -0.03076039 -0.070995815 0.08065733 -0.10106654 -0.0356529
-0.25900728 -0.040665478 -0.056127507 0.057411548 0.06038503 -0.004890838 -0.01046284 0.06071747
0.044028588 0.02850345 -0.037145358 0.0075171487 0.038829938 0.037980873 -0.18328074 -0.05945817
0.006439449 -0.09522431 0.03658912 0.06695681 0.012636448 0.05215666 0.14106849 -0.15531658
-0.028852575 -0.18242532 -0.13723053 -0.08496674 0.05972238 -0.008980281 -0.01981339 0.025244286
-0.078299545 -0.047595587 0.07702108 -0.028643074 -0.15556325 0.060207833 0.024805956 0.03906849
-0.009612382 0.075766325 0.07238698 0.072768256 0.113670535 -0.11001573 0.055993278 0.03456551
00000000: ed5d e7bc a104 823d 66b5 dd3b 4801 25be
00000010: 4449 21bc 405f 55bc 7fab df3c 3aff 143d
00000020: 6808 a33d 1dbe 1cbe 21fe 653d 37fd fbbc
00000030: 4166 91bd ac2f a53d f9fb cebd c608 12bd
00000040: 9a9c 84be d890 26bd f5e5 65bd 5f28 6b3d
00000050: 4b56 773d 5343 a0bb 556c 2bbc e2b2 783d
00000060: 5257 343d 1180 e93c bb25 18bd 6a52 f63b
00000070: 240c 1f3d d591 1b3d f2ad 3bbe 698a 73bd
00000080: 0302 d33b f704 c3bd 79de 153d a720 893d
00000090: 1b09 4f3c 39a2 553d 4274 103e 4f0b 1fbe
000000a0: 3c5c ecbc b4cd 3abe 2986 0cbe 0b03 aebd
000000b0: 749f 743d 0722 13bc b14f a2bc 1bcd ce3c
000000c0: 835b a0bd 97f3 42bd 3abd 9d3d e1a4 eabc
000000d0: f94b 1fbe 7d9c 763d dc35 cb3c 4806 203d
000000e0: 417d 1dbc 602b 9b3d a03f 943d 8607 953d
000000f0: 19cc e83d ed4f e1bd 3559 653d 9094 0d3d

sequential_2/dense_4/BiasAdd/ReadVariableOp/resource f4 [256]
0.13536789 0.010399946 -0.031572826 0.046561524 -0.10290037 -0.009397497 -0.022318617 -0.024478693
-0.009594228 -0.062333345 0.07044961 -0.007870411 -0.112234816 -0.02714021 -0.022622019 0.05705237
0.04371655 0.15455642 0.0046512373 0.015453056 -0.004797519 -0.045282282 0.029569343 0.022468166
0.02441353 -0.018893536 0.11962451 0.023934843 0.040421132 -0.007476255 0.121972844 0.03430402
0.055275224 -0.014821757 0.018539453 -0.005024595 0.084091194 0.026303591 0.105876975 -0.057361804
-0.050346978 -0.087766655 0.13331275 -0.06226118 -0.07688456 0.08431411 0.07706271 -0.047435556
-0.055550754 0.0540959 -0.018404687 0.038064133 0.15060727 -0.011800408 -0.02943689 0.06880123
0.045588035 0.10851749 0.048546035 -0.012127452 0.11624396 -0.06396457 -0.06693323 -0.07925664
0.09029086 0.09480065 0.080724135 0.10752348 -0.05865341 0.10813488 0.072819486 -0.09431034
-0.041526973 -0.06331905 0.14707665 -0.027518293 -0.016217517 -0.076872766 0.030810652 0.08129359
0.069558255 -0.05312372 -0.08109497 0.024616899 -0.14842147 -0.11955598 -0.021374198 0.03900145
0.10213688 0.010513538 0.13276742 0.03205275 0.007690493 -0.014582821 0.1521278 0.047983058
0.021879824 0.07551507 0.07036612 0.10064793 -0.062268935 -0.077235594 0.13919353 0.078711666
0.106283754 -0.008670003 -0.082810484 0.07963452 0.019127708 -0.08363035 -0.03816493 0.1087368
0.09295989 0.031258114 -0.10144428 0.08680411 -0.06941275 0.03976769 -0.007068499 0.0816002
0.0010449365 -0.094124965 -0.020377569 0.062668964 0.13967772 -0.18397483 -0.072246954 0.07660431
0.008600604 -0.052421063 -0.04408093 0.073336884 -0.0015780167 -0.0019869537 -0.05861939 0.03618022
-0.07660714 -0.14060359 0.023465618 0.014227193 0.11614733 0.041074663 0.010993115 -0.090131454
0.10757713 0.005475978 0.017997026 0.023026373 0.049309388 -0.044213213 0.045571774 -0.07465455
-0.024535209 0.006082608 0.060071684 0.039851703 -0.06766576 -0.064286776 -0.05425117 -0.09859829
-0.094867826 0.044173814 -0.044826504 0.048833076 -0.09287871 0.10720488 -0.0042707724 -0.040510137
0.047122765 -0.036203995 0.06320961 0.09328759 0.021092832 -0.07253964 0.026375908 0.09717168
0.0055249925 -0.03211459 0.10756707 -0.0351969 0.06298425 0.096051045 0.04860029 0.047681797
0.12736556 -0.0318239 0.13568076 0.01247914 0.16941768 -0.052706964 0.026901096 -0.030016206
-0.021168066 -0.100871354 -0.06893697 -0.038296923 0.026884412 0.03566398 0.032953314 -0.06025908
-0.07094364 0.005808381 -0.026286343 0.0060422295 0.06942311 0.048356865 -0.009385677 -0.020282846
0.0022313755 -0.02423034 0.037625473 -0.040571768 0.08132719 -0.019428879 0.029759694 -0.09687067
-0.1006145 -0.15152337 0.0058886665 -0.0327648 0.14439633 -0.043778118 -0.10811599 0.1312367
-0.035923287 0.08503522 0.12837258 0.07125185 0.09498959 -0.018441614 -0.046971455 -0.06586343
0.01976323 0.11686663 -0.054387365 0.059624594 0.08506757 0.049839422 -0.062018976 0.04443403
0.119868495 0.053274907 0.0976509 -0.009890921 -0.031178275 -0.026674636 0.11184193 0.053642705
0.038440887 -0.06533944 -0.027809706 -0.041686777 0.07406023 0.03781881 -0.032252114 -0.06466173
00000000: e19d 0a3e 8964 2a3c 8252 01bd 4cb7 3e3d
00000010: 6ebd d2bd f6f7 19bc 88d5 b6bc 8a87 c8bc
00000020: 1c31 1dbc 4051 7fbd e347 903d e5f2 00bc
00000030: 5edb e5bd 2555 debc d051 b9bc bfaf 693d
00000040: 2010 333d 0a44 1e3e 6869 983b d12e 7d3c
00000050: 8234 9dbb ea79 39bd 683b f23c 290f b83c
00000060: e2fe c73c 9ec6 9abc b2fd f43d 0113 c43c
00000070: a190 253d 5ffb f4bb e6cc f93d 5f82 0c3d
00000080: 4668 623d f4d6 72bc 0de0 973c 5ca5 a4bb
00000090: 0138 ac3d a17a d73c 07d6 d83d 36f4 6abd
000000a0: a238 4ebd 01bf b3bd 2383 083e 9405 7fbd
000000b0: a775 9dbd e0ac ac3d 0ed3 9d3d c94b 42bd
000000c0: 3089 63bd aa93 5d3d 6dc5 96bc 23e9 1b3d
000000d0: cb38 1a3e 8056 41bc a225 f1bc a9e7 8c3d
000000e0: 85ba 3a3d 6b3e de3d 35d8 463d 38b2 46bc
000000f0: 5011 ee3d dbff 82bd 4a14 89bd 4e51 a2bd
00000100: 6aea b83d d826 c23d b252 a53d 4535 dc3d
00000110: 8f3e 70bd d275 dd3d 6222 953d c825 c1bd
00000120: 3018 2abd 6bad 81bd 439b 163e 0b6e e1bc
00000130: 99da 84bc 786f 9dbd 9f66 fc3c 417d a63d
00000140: 8f74 8e3d 4298 59bd 1f15 a6bd 61a9 c93c
00000150: ccfb 17be c4d9 f4bd f118 afbc fcbf 1f3d
00000160: 242d d13d f940 2c3c 2ff4 073e bf49 033d
00000170: 8800 fc3b c9ec 6ebc 64c7 1b3e e289 443d
00000180: 513d b33c a5a7 9a3d 1d1c 903d 8020 ce3d
00000190: b60d 7fbd b22d 9ebd c088 0e3e 9533 a13d
000001a0: 4cab d93d a10c 0ebc 8b98 a9bd 6c17 a33d
000001b0: b6b1 9c3c 6446 abbd d452 1cbd 66b1 de3d
000001c0: c161 be3d 8208 003d 05c2 cfbd 5ac6 b13d
000001d0: 4628 8ebd 72e3 223d de9e e7bb 011e a73d
000001e0: 40f6 883a 97c4 c0bd dcee a6bc 9658 803d
000001f0: ad07 0f3e e663 3cbe 36f6 93bd b8e2 9c3d
00000200: 8ce9 0c3c 78b7 56bd 358e 34bd a631 963d
00000210: 74d5 ceba 8d37 02bb e31a 70bd b631 143d
00000220: 34e4 9cbd 63fa 0fbe f83a c03c 2c19 693c
00000230: a7de ed3d e83d 283d 771c 343c d796 b8bd
00000240: 6651 dc3d d56f b33b 806e 933c cea1 bc3c
00000250: a4f8 493d ea18 35bd 78a9 3a3d 7ce4 98bd
00000260: 10fe c8bc 9d50 c73b ba0d 763d 8a3b 233d
00000270: 5994 8abd c9a8 83bd 7a36 5ebd e6ed c9bd
00000280: 104a c2bd 9aef 343d ff9b 37bd 3105 483d
00000290: 3137 bebd 3b8e db3d d6f1 8bbb f5ed 25bd
000002a0: cd03 413d a44a 14bd 0a74 813d 900d bf3d
000002b0: e0ca ac3c aa8f 94bd 4a12 d83c f201 c73d
000002c0: ff0a b53b 978a 03bd 204c dc3d a02a 10bd
000002d0: e3fd 803d 69b6 c43d 1911 473d fd4d 433d
000002e0: 1e6c 023e c759 02bd e6ef 0a3e 4f75 4c3c
000002f0: d47b 2d3e 42e3 57bd b05f dc3c 8ce4 f5bc
00000300: a768 adbc a495 cebd d32e 8dbd 3cdd 1cbd
00000310: b33c dc3c 6514 123d 0efa 063d 3ad2 76bd
00000320: e64a 91bd 3b54 be3b 7556 d7bc e5fd c53b
00000330: b42d 8e3d d911 463d 62c6 19bc 3628 a6bc
00000340: 453c 123b b57e c6bc 2b1d 1a3d 952e 26bd
00000350: df8e a63d 5029 9fbc 9aca f33c 2164 c6bd
00000360: fa0e cebd f128 1bbe b7f5 c03b 6234 06bd
00000370: a2dc 133e af50 33bd eb6b ddbd ea62 063e
00000380: 4c24 13bd f226 ae3d 1a74 033e 7dec 913d
00000390: e789 c23d de12 97bc 2465 40bd 68e3 86bd
000003a0: 7fe6 a13c c657 ef3d 49c5 5ebd eb38 743d
000003b0: e837 ae3d 6c24 4c3d 9c07 7ebd 7500 363d
000003c0: 9d7d f53d ca36 5a3d 32fd c73d 880d 22bc
000003d0: 9569 ffbc c484 dabc 620d e53d 74b8 5b3d
000003e0: 3174 1d3d afd0 85bd 2ed1 e3bc c1bf 2abd
000003f0: e4ac 973d e6e7 1a3d cb1a 04bd 5e6d 84bd

sequential_2/dense_5/BiasAdd/ReadVariableOp/resource f4 [5]
-0.07461124 0.12919065 -0.23578626 0.056198057 0.016127208
00000000: c7cd 98bd 8e4a 043e f471 71be ef2f 663d
00000010: 351d 843c

sequential_2/dense_4/MatMul f4 [256, 64]
-0.09989094 0.07758683 -0.15967292 0.054005884 -0.10145372 -0.07002511 -0.19644134 0.02261038
-0.05484677 0.14425422 -0.042891927 0.019160373 -0.17276701 0.14081542 0.088170595 -0.07921468
0.09230399 0.1283813 -0.09264433 0.017098017 0.07399033 -0.04979122 0.13984878 0.1474999
0.2001974 0.13070135 0.08876545 -0.20200522 -0.025518648 0.07750983 0.12609816 0.022091668
-0.13352777 -0.14421503 0.037160844 0.101906024 0.12848635 -0.07563766 -0.10481194 -0.14418897
-0.10809496 0.010613151 -0.13520576 -0.121728085 0.082174644 -0.07897459 -0.086362414 0.037995957
0.12369039 0.038741194 -0.13556407 0.04912321 0.039611388 -0.098865196 0.2418266 0.23376723
-0.0012974383 -0.17067681 0.014314196 0.15097585 -0.15004057 -0.056730695 0.051040843 -0.07584973
-0.09150678 0.017941378 -0.028155655 0.120894924 0.05588933 -0.05897936 -0.02783161 -0.14093469
-0.13637061 0.07051687 -0.12892793 -0.11103864 -0.045180187 0.046617586 0.107568644 0.08448341
0.10827626 0.11963076 0.042344987 0.1701522 -0.13691911 -0.037746254 -0.02210633 -0.06766466
-0.16468763 -0.18504529 0.028779885 0.1732504 -0.01806081 0.021002945 0.04021781 0.050926864
-0.090483174 -0.16119021 -0.1383871 -0.2355929 -0.10994854 0.030261843 -0.17706494 -0.14270921
-0.34942484 0.31404483 -0.07764819 0.1672522 -0.08564787 0.24845356 0.081395864 -0.28208786
0.046827428 -0.2265714 -0.16819596 -0.12118687 -0.041618057 -0.23861763 -0.17832991 -0.14320575
-0.0048301416 0.27657002 -0.07890648 -0.018123833 -0.27554172 -0.074910335 -0.04130956 -0.22220413
0.022514261 -0.18837579 0.11586298 -0.07808797 -0.079561114 0.06378485 -0.10618686 -0.120823525
-0.16314375 0.021208752 0.038311485 0.0024024923 -0.07355978 -0.101981044 0.13526765 0.09717986
0.020731734 0.07357056 -0.20119134 0.06328248 -0.056817487 -0.012837156 -0.050847683 -0.1086717
-0.018155754 -0.066977546 -0.065532945 -0.023083402 -0.026456488 0.030199524 -0.08608082 -0.11454536
-0.051573332 -0.03919503 -0.045520756 -0.11764498 -0.1947411 -0.021381536 -0.00093198527 -0.13331902
-0.12924169 -0.16247603 -0.06526775 0.11235906 -0.0053965854 -0.02240795 0.01402783 -0.101737864
0.028504247 -0.11337352 -0.008834578 0.07934003 0.095573984 -0.027750984 -0.029211167 0.030162187
0.038961947 -0.015690312 -0.138457 -0.12542672 -0.14131184 0.05619196 -0.015626974 -0.030115863
-0.041709505 -0.07459261 -0.12840796 0.12818375 -0.09067845 -0.058726255 -0.16476436 0.04504433
0.07143872 0.02278298 0.14258873 -0.019396905 -0.039120484 0.10945443 0.0020522475 -0.05438208
0.014546084 -0.07017776 0.15493904 -0.038253136 0.08752746 0.00019228231 0.060342714 0.107014604
-0.0024667794 0.096729904 -0.14099784 -0.09972709 -0.047484666 0.10931875 0.13619986 0.14729704
0.03731682 0.0553951 0.15018713 0.10829647 0.07485317 -0.00095799903 0.13177514 0.20199083
-0.101838686 -0.03840002 -0.10065731 -0.0802382 0.046577793 -0.06846486 -0.14149962 0.0768498
0.038190335 -0.054036755 -0.119173124 -0.09372389 0.03454779 0.14445868 0.0835633 0.095772035
0.18372355 0.011950284 -0.06575983 -0.051197723 0.1849832 -0.18698613 -0.137898 -0.105823584
00000000: 9f93 ccbd d8e5 9e3d 4c81 23be 4635 5d3d
00000010: f8c6 cfbd 5369 8fbd eb27 49be 6739 b93c
00000020: 02a7 60bd 61b7 133e 72af 2fbd 37f6 9c3c
00000030: d6e9 30be eb31 103e c992 b43d 4e3b a2bd
00000040: e009 bd3d 6376 033e 4fbc bdbd 2411 8c3c
00000050: 3e88 973d e1f1 4bbd 8534 0f3e 370a 173e
00000060: 8c00 4d3e 93d6 053e a9ca b53d 75da 4ebe
00000070: 7c0c d1bc 79bd 9e3d e01f 013e 96f9 b43c
00000080: 81bb 08be 1bad 13be f835 183d 1bb4 d03d
00000090: ed91 033e ebe7 9abd a4a7 d6bd 46a6 13be
000000a0: e460 ddbd c8e2 2d3c 6173 0abe 934c f9bd
000000b0: 2e4b a83d 6ebd a1bd c7de b0bd a6a1 1b3d
000000c0: 6351 fd3d 16af 1e3d 4fd1 0abe 6b35 493d
000000d0: 8d3f 223d d679 cabd 64a1 773e ad60 6f3e
000000e0: ce0e aaba e7c5 2ebe 1786 6a3c 6a99 1a3e
000000f0: 3ca4 19be 725e 68bd 3410 513d 1a57 9bbd
00000100: e867 bbbd ccf9 923c b0a6 e6bc c297 f73d
00000110: 36ec 643d 5794 71bd 1eff e3bc 2f51 10be
00000120: bda4 0bbe 266b 903d af05 04be 3a68 e3bd
00000130: dc0e 39bd 15f2 3e3d f34c dc3d a305 ad3d
00000140: f2bf dd3d f900 f53d f071 2d3d 613c 2e3e
00000150: 8634 0cbe d19b 1abd 5618 b5bc c593 8abd
00000160: e0a3 28be 837c 3dbe cbc3 eb3c 8e68 313e
00000170: 44f4 93bc 5e0e ac3c 6ebb 243d b098 503d
00000180: 3e4f b9bd 0c0f 25be 59b5 0dbe 443f 71be
00000190: b32c e1bd afe7 f73c 8350 35be 5d22 12be
000001a0: d0e7 b2be 7cca a03e 0406 9fbd 2944 2b3e
000001b0: 2768 afbd 9c6a 7e3e e0b2 a63d d26d 90be
000001c0: 1ece 3f3d 5502 68be 903b 2cbe d230 f8bd
000001d0: b277 2abd 2e58 74be 1e9c 36be 87a4 12be
000001e0: 2a46 9ebb 969a 8d3e b899 a1bd 6f78 94bc
000001f0: ce13 8dbe 976a 99bd 3734 29bd 7b89 63be
00000200: d46f b83c 95e5 40be 9249 ed3d 96ec 9fbd
00000210: f0f0 a2bd a2a1 823d 7f78 d9bd 5372 f7bd
00000220: 280f 27be fabd ad3c 81ec 1c3d 2273 1d3b
00000230: 83a6 96bd 70db d0bd 9a83 0a3e 3c06 c73d
00000240: 99d5 a93c 29ac 963d 1a05 4ebe 3f9a 813d
00000250: 74b9 68bd ef52 52bc a945 50bd 458f debd
00000260: 60bb 94bc 862b 89bd 2336 86bd 6719 bdbc
00000270: 47bb d8bc fe64 f73c 244b b0bd c296 eabd
00000280: 8f3e 53bd f88a 20bd f973 3abd daef f0bd
00000290: 366a 47be 5528 afbc 7950 74ba c884 08be
000002a0: ef57 04be 1e60 26be 19ab 85bd 821c e63d
000002b0: d7d5 b0bb e190 b7bc fcd4 653c f15b d0bd
000002c0: bd81 e93c 6030 e8bd e8be 10bc 077d a23d
000002d0: 4bbc c33d 0856 e3bc 424c efbc b116 f73c
000002e0: 9096 1f3d f888 80bc acc7 0dbe dd6f 00be
000002f0: 0db4 10be 8a29 663d 2404 80bc 8bb5 f6bc
00000300: 96d7 2abd 03c4 98bd 607d 03be 9a42 033e
00000310: a0b5 b9bd f18a 70bd fdb7 28be 6780 383d
00000320: 774e 923d 5fa3 ba3c c802 123e 42e6 9ebc
00000330: cd3c 20bd a529 e03d 007f 063b bebf 5ebd
00000340: b352 6e3c 5cb9 8fbd 57a8 1e3e 52af 1cbd
00000350: 9941 b33d 649f 4939 ec29 773d 792a db3d
00000360: b1a9 21bb 541a c63d bd61 10be b73d ccbd
00000370: 487f 42bd 82e2 df3d fa77 0b3e 09d5 163e
00000380: 86d9 183d f9e5 623d a8ca 193e 8aca dd3d
00000390: 9e4c 993d 3a22 7bba 10f0 063e afd6 4e3e
000003a0: cd90 d0bd 5749 1dbd 6b25 cebd ed53 a4bd
000003b0: 5bc8 3e3d 4e37 8cbd 47e5 10be 6e63 9d3d
000003c0: 786d 1c3d a555 5dbd 0a11 f4bd 50f2 bfbd
000003d0: fc81 0d3d faec 133e 3c23 ab3d 2124 c43d
000003e0: 0722 3c3e 20cb 433c 17ad 86bd b4b4 51bd
000003f0: 3c6c 3d3e 4b79 3fbe 2235 0dbe 09ba d8bd

sequential_2/dense_5/MatMul f4 [5, 256]
0.10137272 -0.104689844 0.108001426 -0.24478784 -0.08153869 0.012331256 0.12388832 -0.02560646
0.11292562 0.02344395 -0.22792353 -0.16749117 -0.14682646 -0.09766166 0.02263422 0.04910086
-0.19141045 -0.28934097 -0.06878948 0.07141613 -0.030128974 -0.12383913 -0.14385371 -0.202229
-0.025112135 -0.12651408 -0.3350903 0.12716547 0.030465394 4.537434e-05 -0.019499741 0.04105705
0.046085656 0.012937675 -0.09441787 0.015637236 -0.060327645 -0.0325981 0.14106493 -0.12830634
-0.22333378 0.0015604777 -0.1677059 -0.025331298 -0.15507707 0.0043660523 -0.061531786 0.038908403
-0.079475105 0.063566685 0.13974054 0.04234644 -0.08537398 -0.10961004 -0.021911435 -0.27631858
-0.021875866 -0.24588412 -0.122556195 -0.052458063 -0.014542796 -0.0755318 -0.13038035 0.03114085
0.14963809 -0.1345823 0.15728047 -0.172196 0.05760452 0.050972827 0.14903954 -0.19998509
-0.18456438 -0.07557077 0.08718752 -0.09415216 0.042958558 -0.014790669 0.119375065 0.0054550883
-0.106900714 0.023736348 -0.22338903 0.029387405 -0.2027853 0.092623316 -0.24069948 -0.20204285
-0.09499604 -0.18450509 -0.10891053 -0.109642364 0.07160042 -0.101624206 -0.21832208 -0.11440383
0.086617 -0.0050080474 -0.24868879 0.12123986 -0.015865484 -0.1539916 0.016474405 0.07764782
0.03675783 -0.056269236 0.038472977 0.10495105 0.054635767 -0.20343156 -0.07843755 0.05562044
-0.02366299 0.07384431 0.049817592 -0.22537084 0.013156506 -0.2846869 -0.12771332 -0.15995161
-0.16240597 0.018635081 0.0103568975 0.01654896 -0.01533851 0.05405641 0.1129817 -0.1305171
0.029372027 -0.14641853 -0.22031048 -0.2162285 -0.13743165 0.0662366 0.06882946 0.03363232
0.112063065 -0.009145926 -0.15160522 -0.13771588 0.15195698 0.16148414 0.14618607 -0.02110173
-0.18806519 -0.109633714 0.121204965 -0.14765128 0.060427774 0.0384637 0.14541098 -0.10398623
0.0746246 0.05592161 0.04354877 -0.056551203 0.09049738 -0.14964952 0.063254416 0.046532698
0.014488771 -0.019359918 0.073111296 0.10204755 -0.10043243 -0.19217661 0.015202723 0.04065992
0.0431156 -0.19887723 0.123069875 0.10981781 -0.25014862 0.011844672 0.044720296 -0.04773511
0.08019096 -0.16178095 0.109966554 -0.11100378 0.03807945 0.09389639 -0.13735583 -0.01502047
-0.017631356 -0.25800055 0.09233255 -0.31719035 -0.26580822 -0.050558347 -0.110769905 0.11586767
-0.1297947 0.02625898 -0.13844009 -0.1687494 -0.18978901 -0.050833985 -0.05760099 0.015666915
-0.14900489 0.061455563 -0.2860715 0.13427491 0.16240379 -0.10609644 -0.044972572 -0.09706945
0.11583965 -0.11429429 -0.07205943 -0.24058406 -0.03126612 -0.14205001 -0.18876179 -0.041939422
-0.04957653 -0.25457504 0.10707426 0.13625802 -0.08409085 -0.18683356 -0.10340875 0.10149776
-0.059414383 -0.3177817 0.07783799 -0.17441237 -0.055153646 0.08062773 -0.008441622 0.09214885
-0.07666167 0.06405308 -0.061007068 0.13019137 -0.038230542 -0.1820672 0.17005095 -0.12600125
-0.39531896 0.08612564 0.13531946 0.04729721 0.08960512 0.08443941 -0.122331485 -0.11076099
-0.18556614 0.02809531 -0.16164452 -0.019575667 0.2268378 -0.33692908 -0.07628749 -0.117438495
00000000: 809c cf3d a167 d6bd da2f dd3d aaa9 7abe
00000010: c2fd a6bd 0909 4a3c 29b9 fd3d a4c4 d1bc
00000020: 8c45 e73d 870d c03c c964 69be ce82 2bbe
00000030: ad59 16be d602 c8bd 666b b93c fc1d 493d
00000040: 1a01 44be 8024 94be 80e1 8cbd 9f42 923d
00000050: 0ad1 f6bc 5f9f fdbd 634e 13be 1e15 4fbe
00000060: f7b7 cdbc e88c 01be f590 abbe aa37 023e
00000070: 9092 f93c 5450 3e38 ecbd 9fbc 702b 283d
00000080: 50c4 3c3d 8bf8 533c 285e c1bd a919 803c
00000090: 1f1a 77bd 9685 05bd 5373 103e bd62 03be
000000a0: 9cb1 64be f188 cc3a 18bb 2bbe 9583 cfbc
000000b0: 86cc 1ebe 1a11 8f3b c108 7cbd 6b5e 1f3d
000000c0: d8c3 a2bd 402f 823d 2518 0f3e 7673 2d3d
000000d0: 8ed8 aebd 3b7b e0bd 9c7f b3bc a179 8dbe
000000e0: 0435 b3bc 0cc9 7bbe befe fabd 44de 56bd
000000f0: e844 6ebc 6bb0 9abd 6d82 05be 191b ff3c
00000100: ba3a 193e f1cf 09be 220e 213e 2654 30be
00000110: b8f2 6b3d e2c8 503d d29d 183e e4c8 4cbe
00000120: 72fe 3cbe d9c4 9abd 5f8f b23d d9d2 c0bd
00000130: 50f5 2f3d 9054 72bc ea7a f43d 99c0 b23b
00000140: c3ee dabd bb72 c23c 18c0 64be dbbd f03c
00000150: f3a6 4fbe 4bb1 bd3d ed79 76be 52e4 4ebe
00000160: 498d c2bd e7ee 3cbe 7c0c dfbd 2d8c e0bd
00000170: 3ea3 923d 5a20 d0bd d38f 5fbe 8e4c eabd
00000180: 4164 b13d 8c1a a4bb 46a8 7ebe 9b4c f83d
00000190: 55f8 81bc f9af 1dbe 55f5 863c d205 9f3d
000001a0: 618f 163d 927a 66bd d795 1d3d 93f0 d63d
000001b0: c1c9 5f3d 5d50 50be dea3 a0bd 42d2 633d
000001c0: e3d8 c1bc b03b 973d 880d 4c3d 9dc7 66be
000001d0: 638e 573c 7bc2 91be 48c7 02be 5bca 23be
000001e0: c04d 26be 99a8 983c faaf 293c af91 873c
000001f0: 604e 7bbc 416a 5d3d f362 e73d 46a6 05be
00000200: 9b9d f03c bdee 15be 1299 61be 016b 5dbe
00000210: e2ba 0cbe 0ea7 873d 76f6 8c3d 0bc2 093d
00000220: 5281 e53d cbd8 15bc 663e 1bbe 6405 0dbe
00000230: 9c9a 1b3e 195c 253e cdb1 153e 89dd acbc
00000240: 2994 40be a487 e0bd 4f3a f83d e631 17be
00000250: 1d83 773d 1d8c 1d3d 9ee6 143e bcf6 d4bd
00000260: c8d4 983d 0f0e 653d 3260 323d 3ca2 67bd
00000270: b156 b93d b93d 19be 888b 813d 1299 3e3d
00000280: 4f62 6d3c b198 9ebc 60bb 953d 4efe d03d
00000290: 85af cdbd f2c9 44be d814 793c 048b 263d
000002a0: fc99 303d 79a6 4bbe 0f0c fc3d 29e8 e03d
000002b0: 7b13 80be 2810 423c a12c 373d e485 43bd
000002c0: 283b a43d e8a9 25be 2536 e13d f355 e3bd
000002d0: 33f9 1b3d c04c c03d 02a7 0cbe 6b18 76bc
000002e0: a26f 90bc a618 84be d918 bd3d c666 a2be
000002f0: 0418 88be 4516 4fbd 55db e2bd 074c ed3d
00000300: e7e8 04be 131d d73c 3dc3 0dbe a5cc 2cbe
00000310: 0d58 42be 4c37 50bd 04ef 6bbd e757 803c
00000320: bd94 18be d4b8 7b3d f777 92be 5d7f 093e
00000330: 2e4d 263e 1749 d9bd 2935 38bd 59cc c6bd
00000340: 573d ed3d 2013 eabd e593 93bd ab5b 76be
00000350: e710 00bd 8f75 11be c54a 41be acc8 2bbd
00000360: c210 4bbd a957 82be c049 db3d 3987 0b3e
00000370: d337 acbd 4c51 3fbe f7c7 d3bd 0fde cf3d
00000380: 7f5c 73bd 48b4 a2be 8669 9f3d 2899 32be
00000390: cae8 61bd 2720 a53d bb4e 0abc 89b8 bc3d
000003a0: cb00 9dbd 432e 833d 8ce2 79bd e350 053e
000003b0: a197 1cbd d36f 3abe d621 2e3e 7906 01be
000003c0: 3f67 cabe a462 b03d 2f91 0a3e b8ba 413d
000003d0: e482 b73d 92ee ac3d ee88 fabd a8d6 e2bd
000003e0: 0d05 3ebe 2328 e63c 2486 25be 265d a0bc
000003f0: 2b48 683e f881 acbe 9e3c 9cbd 9883 f0bd

sequential_2/conv2d_12/Conv2D f4 [32, 3, 3, 3]
-0.28834888 -0.17713708 -0.2255448 0.027592972 0.0011216777 -0.015057845 0.07552591 0.02826024
-0.044652406 -0.102849804 -0.21011671 -0.00069572864 0.08803967 0.14705816 0.0008885874 -0.07440707
-0.18821043 -0.030909762 0.017252399 0.070575334 0.06867091 0.14039831 0.03209496 -0.05734605
-0.23850401 -0.29899803 -0.17148255 0.092982896 0.13470192 -0.09147417 -0.15300588 -0.059575867
-0.17923802 -0.10280168 -0.18342206 -0.22233944 0.25857425 0.11216747 -0.008047416 0.14146714
-0.14893882 -0.1215027 -0.11434553 0.019124726 -0.25228852 0.22598901 0.20803297 0.10608751
0.14161205 0.19630773 0.04641512 -0.12641785 0.06533415 -0.028241487 0.15648516 0.12574898
0.07584738 -0.0435845 -0.21223485 -0.13174301 -0.1700444 0.011836386 -0.11795539 -0.08301097
0.11923565 0.02240046 -0.030663678 -0.11821105 -0.16478175 -0.059971064 0.048736826 -0.20631593
-0.07459135 -0.13875608 -0.15905257 0.04661391 -0.09784038 -0.10292662 -0.0031938192 -0.033908352
0.08365966 -0.1398052 0.26951844 0.12365842 -0.10327708 0.09379833 0.23817761 -0.19699065
-0.064067066 -0.07807779 -0.05395068 0.18840975 0.22472182 -0.191194 -0.07142709 -0.06223338
-0.11207929 -0.13235639 -0.30242226 -0.16411783 0.0646321 -0.045633163 -0.15600757 0.067516595
-0.019275635 -0.18377845 -0.027818527 -0.27147985 0.014961582 -0.063591525 -0.12690903 0.08970323
0.11466731 -0.18613766 0.13328305 0.106817625 -0.13627376 0.03267484 -0.0078873355 0.005733832
0.19764856 0.14527985 -0.04626494 0.1772166 0.085281335 -0.06454247 0.10877783 -0.07675127
-0.103245914 0.15956256 -0.032680698 -0.17345649 0.22552569 0.15980692 -0.14981721 -0.02937904
-0.014204099 -0.111280635 0.030874921 -0.050388455 -0.16412945 -0.104004554 -0.12776844 -0.065166384
-0.24662672 -0.04042632 0.1139596 -0.3723478 -0.2174244 -0.00022720522 -0.16170292 -0.14628974
-0.15832727 0.064651296 0.088407725 0.10104994 -0.12524748 0.09505115 0.18059139 -0.13980305
0.008797193 0.18474159 0.24854927 0.06809528 0.17404553 0.0766448 0.18561351 0.025938373
0.1867727 0.08163565 0.124852665 0.14908154 -0.101208284 -0.122591205 -0.17256829 -0.30029234
-0.3336626 0.10520923 -0.080000296 -0.16844533 -0.0074711326 0.022514382 -0.048654925 -0.10736776
-0.03565307 -0.0553223 -0.09597318 -0.032851174 -0.032764934 -0.046920057 0.049338892 -0.16004148
-0.14581239 0.02486075 -0.2307855 0.054094255 0.06786467 -0.2309543 -0.2395867 -0.19763263
-0.21361929 -0.16851652 -0.188876 -0.31942397 -0.27058437 -0.13982499 0.03647709 0.21612751
0.16265349 0.14329554 0.0087510375 0.22297336 -0.044773176 0.12685879 -0.011450869 0.055523593
0.15171094 -0.049349263 -0.16273178 -0.0169005 0.026554713 -0.1519596 -0.07256314 0.057250533
-0.20360439 0.10650957 0.09246922 -0.12036983 -0.061480667 -0.09116353 -0.28060564 -0.016905019
0.10263273 -0.14268655 -0.11075097 0.004714178 -0.025384484 0.1236294 0.120812885 -0.18444014
0.08764798 0.19723637 0.108250186 0.04417972 -0.1031625 -0.08293689 -0.08505366 0.0049358523
0.0909371 0.083200395 0.03345607 0.08495842 -0.041065257 -0.35732257 -0.033231884 0.052426793
00000000: 77a2 93be 6c63 35be 37f5 66be a80a e23c
00000010: 4205 933a 2eb5 76bc 54ad 9a3d 0582 e73c
00000020: 71e5 36bd eba2 d2bd d628 57be 8f61 36ba
00000030: 244e b43d 6a96 163e 17f0 683a bc62 98bd
00000040: 3cba 40be 7836 fdbc e754 8d3c cd89 903d
00000050: 56a3 8c3d 93c4 0f3e 0176 033d b1e3 6abd
00000060: 653a 74be 4516 99be 1f99 2fbe d16d be3d
00000070: 4def 093e cf56 bbbd 93ad 1cbe d305 74bd
00000080: 2c8a 37be b089 d2bd fed2 3bbe f3ac 63be
00000090: d863 843e 0fb8 e53d 4fd9 03bc c3dc 103e
000000a0: 6b83 18be 68d6 f8bd fd2d eabd 75ab 9c3c
000000b0: f62b 81be aa69 673e 9806 553e 6944 d93d
000000c0: c002 113e e504 493e c81d 3e3d ae73 01be
000000d0: e9cd 853d b15a e7bc a53d 203e 57c4 003e
000000e0: df55 9b3d a985 32bd 1854 59be a4e7 06be
000000f0: 1f20 2ebe 67ed 413c 9892 f1bd a801 aabd
00000100: d231 f43d 2b81 b73c 6532 fbbc a318 f2bd
00000110: 8cbc 28be 38a4 75bd 44a0 473d 7c44 53be
00000120: 5ac3 98bd 1316 0ebe adde 22be 3aee 3e3d
00000130: 8a60 c8bd 31cb d2bd 654f 51bb 7ce3 0abd
00000140: c155 ab3d 1829 0fbe 52fe 893e a040 fd3d
00000150: ef82 d3bd 5719 c03d d5e4 733e ebb7 49be
00000160: 9835 83bd 40e7 9fbd 63fb 5cbd 7cee 403e
00000170: 7a1d 663e 5cc8 43be 5e48 92bd 6ee8 7ebd
00000180: d489 e5bd 6f88 07be 17d7 9abe 810e 28be
00000190: d65d 843d d7e9 3abd 73c0 1fbe 2446 8a3d
000001a0: f0e7 9dbc 6b30 3cbe aee3 e3bc 68ff 8abe
000001b0: 6c21 753c 463c 82bd 71f4 01be 54b6 b73d
000001c0: b2d6 ea3d df9a 3ebe 5a7b 083e 33c3 da3d
000001d0: 598b 0bbe 0ed6 053d e239 01bc dee2 bb3b
000001e0: 6264 4a3e 3ec4 143e 4e80 3dbd 4578 353e
000001f0: fba7 ae3d d82e 84bd e9c6 de3d c52f 9dbd
00000200: 9872 d3bd 5e64 233e 32dc 05bd 949e 31be
00000210: 35f0 663e 6da4 233e af69 19be 50ac f0bc
00000220: 4fb8 68bc 1ae7 e3bd 67ed fc3c 2064 4ebd
00000230: 8d11 28be 5700 d5bd bbd5 02be f475 85bd
00000240: b78b 7cbe 1296 25bd a763 e93d 5fa4 bebe
00000250: 80a4 5ebe f03d 6eb9 7395 25be facc 15be
00000260: 8b20 22be e667 843d 1c0f b53d 45f3 ce3d
00000270: e040 00be 2daa c23d f3ec 383e 8828 0fbe
00000280: 1a22 103c e62c 3d3e b383 7e3e 8a75 8b3d
00000290: fe38 323e f3f7 9c3d 7811 3e3e b67c d43c
000002a0: 5841 3f3e 9730 a73d c1b2 ff3d d5a8 183e
000002b0: 4a46 cfbd 1911 fbbd beb5 30be ebbf 99be
000002c0: d3d5 aabe f077 d73d 32d7 a3bd ef7c 2cbe
000002d0: 67d0 f4bb 1570 b83c 634a 47bd a1e3 dbbd
000002e0: f408 12bd a399 62bd 968d c4bd f48e 06bd
000002f0: 8634 06bd 3f2f 40bd 9417 4a3d eae1 23be
00000300: d84f 15be c6a8 cb3c 0953 6cbe f091 5d3d
00000310: a2fc 8a3d 497f 6cbe 3756 75be 3560 4abe
00000320: 04bf 5abe 988f 2cbe b668 41be 8a8b a3be
00000330: 098a 8abe 482e 0fbe 0069 153d 8850 5d3e
00000340: a38e 263e 11bc 123e 8360 0f3c 2153 643e
00000350: 1464 37bd 45e7 013e 6d9c 3bbc b56c 633d
00000360: 1d5a 1b3e 7422 4abd 29a3 26be eb72 8abc
00000370: 4589 d93c 4c9b 1bbe fc9b 94bd 897f 6a3d
00000380: ab7d 50be b021 da3d 8160 bd3d 7584 f6bd
00000390: 27d3 7bbd f2b3 babd 8bab 8fbe 657c 8abc
000003a0: 1c31 d23d 6c1c 12be 68d1 e2bd 6479 9a3b
000003b0: 1ff3 cfbc 6931 fd3d bf6c f73d e0dd 3cbe
000003c0: c980 b33d 55f8 493e 46b2 dd3d cbf5 343d
000003d0: dc46 d3bd d1da a9bd 9d30 aebd eebc a13b
000003e0: 3b3d ba3d f864 aa3d 3b09 093d aefe ad3d
000003f0: 0b34 28bd fcf2 b6be 281e 08bd 7abd 563d

sequential_2/conv2d_13/Conv2D f4 [64, 3, 3, 32]
0.26802182 0.22822993 -0.053125788 -0.008043296 -0.16782215 0.0022747605 -0.1258781 0.040403236
0.08042629 -0.06786012 -0.058988977 -0.24681248 -0.0065427353 0.011787635 -0.032314207 0.1572997
-0.26294032 0.042535316 -0.17492466 0.03887481 0.13220009 0.019932672 -0.017033583 -0.06706973
0.043034665 -0.052342486 -0.2287146 -0.0023773247 -0.023299003 0.06882279 0.15244892 -0.17557447
-0.022986323 -0.046929937 0.06091223 -0.0978327 -0.21514782 0.01923821 -0.16326806 -0.014274948
-0.0017782089 -0.35277888 -0.2401974 -0.117162116 0.013479163 0.029742032 -0.047279436 -0.081623755
-0.08687371 -0.09407972 -0.2541438 -0.0142625505 -0.07293099 0.06186539 -0.006868742 -0.05511751
0.058994334 -0.01425209 -0.1357179 -0.037906356 -0.050599728 -0.13520898 -0.04667086 0.03292554
-0.21236405 -0.08529128 -0.30197722 -0.22430012 -0.03695517 0.19234803 -0.41941413 -0.005089906
0.04494908 -0.047035463 -0.24450366 -0.16395798 -0.26263517 -0.054811873 -0.06407189 0.04504774
0.13415293 -0.17524315 -0.15887201 -0.046825144 -0.16517958 0.07380685 0.07091979 0.08810519
-0.10504138 -0.077289544 -0.12356148 -0.07151091 0.029053923 -0.21776104 0.028363967 -0.10345241
0.17156611 0.15226701 0.10094421 0.23978844 -0.06226063 0.11662771 0.09585894 -0.008566326
0.07608876 -0.09850938 0.013121176 0.030682255 0.1320406 -0.060798783 0.007960122 0.060571596
-0.1944968 -0.03875527 -0.17296247 0.08151355 0.14939927 0.03438194 -0.08936487 -0.14259675
-0.05014059 0.18840264 0.05571002 0.056573573 -0.077816404 0.09407618 0.024259353 -0.020378474
-0.13689135 -0.020563824 0.067548744 -0.034146946 -0.19101653 -0.12887399 -0.07604545 0.004817281
0.014063523 -0.21012127 -0.12701708 0.11965415 0.08292977 0.02860658 -0.089881755 -0.06725713
-0.13711843 0.015922552 -0.12134057 -0.13459522 -0.09983435 -0.004474889 -0.12276399 -0.13813399
-0.094725646 0.053967267 0.11683721 -0.040085163 -0.17646515 -0.038370103 -0.047292277 0.03271245
-0.07064784 -0.18830933 -0.23664391 -0.083217375 -0.06821267 -0.08117676 -0.18337129 -0.08514459
0.10951232 0.036904775 -0.028294567 -0.04991041 -0.05601428 0.060701966 0.090649955 -0.02242612
0.18786179 -0.068757035 -0.086663894 0.11484648 -0.25808814 0.10771023 -0.049204834 -0.03678971
-0.007970923 0.09665946 0.087874696 -0.011646655 0.1254761 -0.037649915 -0.17355286 -0.037009284
-0.037328035 -0.03474207 0.009070829 0.21287128 0.019484727 0.02507279 0.054757923 -0.09686303
-0.05428121 -0.0751653 0.081933305 0.06397667 -0.013831528 -0.018890675 0.092605256 -0.08943095
0.10130603 -0.11758216 -0.05959632 -0.016165022 0.09401404 0.117675394 -0.16763206 -0.042913172
-0.023706198 0.121819265 0.1107681 0.030403968 -0.4157389 0.0989879 0.043496642 0.038046848
-0.20543759 0.06991466 0.10447452 -0.08455471 -0.16540088 -0.026767174 0.14580561 -0.0058293277
0.12082687 -0.24037743 -0.005827735 0.07979609 0.05262712 -0.018266533 -0.064717166 -0.0880303
-0.29748932 -0.145092 -0.18875468 0.023927897 0.039179273 0.09883395 -0.17724851 -0.081344895
-0.089313045 0.17427765 0.019367164 -0.041091215 -0.09570828 0.022453431 -0.06843059 0.07297682
00000000: 283a 893e 1bb5 693e 6d9a 59bd 07c8 03bc
00000010: 92d9 2bbe 2614 153b 30e6 00be dd7d 253d
00000020: 8ab6 a43d 3ffa 8abd 6d9e 71bd 69bc 7cbe
00000030: 7164 d6bb ed20 413c e75b 04bd 2c13 213e
00000040: 1da0 86be 8339 2e3d 731f 33be 313b 1f3d
00000050: 765f 073e d849 a33c 038a 8bbc db5b 89bd
00000060: 1e45 303d 1365 56bd 2934 6abe e4cc 1bbb
00000070: 8ddd bebc f7f2 8c3d 921b 1c3e cbc9 33be
00000080: d04d bcbc 9b39 40bd 1a7f 793d 835c c8bd
00000090: b64f 5cbe 7399 9d3c be2f 27be 79e1 69bc
000000a0: ca12 e9ba 6f9f b4be 4ff6 75be b1f2 efbd
000000b0: b5d7 5c3c 90a5 f33c 15a8 41bd 5b2a a7bd
000000c0: d8ea b1bd deac c0bd 231f 82be 79ad 69bc
000000d0: d85c 95bd 9066 7d3d 2f13 e1bb e6c2 61bd
000000e0: 0ba4 713d 9981 69bc a2f9 0abe b243 1bbd
000000f0: a941 4fbd 3974 0abe f229 3fbd eedc 063d
00000100: f675 59be 32ad aebd c29c 9abe eeae 65be
00000110: 4e5e 17bd e2f6 443e 73bd d6be 3ac9 a6bb
00000120: 871c 383d 42a8 40bd 2b5f 7abe 9ae4 27be
00000130: 1e78 86be 6a82 60bd 2038 83bd fb83 383d
00000140: 635f 093e f172 33be 58af 22be b9cb 3fbd
00000150: d624 29be 0c28 973d 653e 913d 7e70 b43d
00000160: ef1f d7bd fb49 9ebd cd0d fdbd 5074 92bd
00000170: 7e02 ee3c c0fc 5ebe 8d5b e83c dbde d3bd
00000180: 07af 2f3e e2eb 1b3e d7bb ce3d 1a8b 753e
00000190: 0105 7fbd 82da ee3d b151 c43d c759 0cbc
000001a0: 6cd4 9b3d 49bf c9bd 33fa 563c 5a59 fb3c
000001b0: a735 073e 2508 79bd 2c6b 023c ec19 783d
000001c0: 2b2a 47be d9bd 1ebd 131d 31be 93f0 a63d
000001d0: 1ffc 183e 14d4 0c3d ee04 b7bd e204 12be
000001e0: 3860 4dbd 9fec 403e 3130 643d b1b9 673d
000001f0: 355e 9fbd 03ab c03d 8dbb c63c c2f0 a6bc
00000200: 3f2d 0cbe 7775 a8bc ff56 8a3d abdd 0bbd
00000210: d699 43be 8bf7 03be b8bd 9bbd 48da 9d3b
00000220: b16a 663c 082a 57be c410 02be 3c0d f53d
00000230: 15d7 a93d 5958 ea3c ed13 b8bd 1bbe 89bd
00000240: c668 0cbe 0370 823c 6881 f8bd 54d3 09be
00000250: f475 ccbd 17a2 92bb b06b fbbd ff72 0dbe
00000260: 85ff c1bd c80c 5d3d 5948 ef3d 5730 24bd
00000270: 48b3 34be f829 1dbd 8cb5 41bd 7dfd 053d
00000280: d1af 90bd 29d4 40be c852 72be df6d aabd
00000290: 16b3 8bbd 0040 a6bd afc5 3bbe 4960 aebd
000002a0: ff47 e03d 7629 173d 02ca e7bc dc6e 4cbd
000002b0: 3b6f 65bd a0a2 783d afa6 b93d fbb6 b7bc
000002c0: d75e 403e 7dd0 8cbd d77c b1bd a234 eb3d
000002d0: 2124 84be 2e97 dc3d 028b 49bd cfb0 16bd
000002e0: 7998 02bc 65f5 c53d a6f7 b33d 9dd1 3ebc
000002f0: cf7c 003e cc36 1abd d7b7 31be 0c97 17bd
00000300: 48e5 18bd b34d 0ebd d09d 143c eefa 593e
00000310: 6f9e 9f3c 7465 cd3c d849 603d 2060 c6bd
00000320: f955 5ebd 44f0 99bd a6cc a73d 3306 833d
00000330: a29d 62bc 9ec0 9abc d3a7 bd3d 9327 b7bd
00000340: 8979 cf3d eace f0bd 451b 74bd 826c 84bc
00000350: 6f8a c03d ccff f03d bda7 2bbe b9c5 2fbd
00000360: 8033 c2bc 617c f93d 63da e23d be11 f93c
00000370: bbdb d4be 2bba ca3d 8929 323d 03d7 1b3d
00000380: 3b5e 52be 6b2f 8f3d bdf6 d53d 052b adbd
00000390: d95e 29be d546 dbbc 114e 153e f203 bfbb
000003a0: 1474 f73d 8025 76be 96f6 bebb 226c a33d
000003b0: 898f 573d b2a3 95bc 6f8a 84bd 3b49 b4bd
000003c0: 8550 98be ff92 14be e848 41be 7004 c43c
000003d0: 727a 203d 7469 ca3d a280 35be 2798 a6bd
000003e0: c2e9 b6bd d775 323e e3a7 9e3c 434f 28bd
000003f0: b402 c4bd 42f0 b73c 5625 8cbd df74 953d

sequential_2/conv2d_14/Conv2D f4 [64, 3, 3, 64]
-0.29593554 0.05069486 0.054055292 -0.13861355 -0.08789341 0.006277818 -0.25463277 0.08895748
0.0023654478 0.1121432 -0.061667804 0.021011146 -0.351033 -0.424715 -0.2978247 -0.06746281
-0.040233336 0.0777091 -0.008986481 -0.017891452 0.0014186709 -0.12150177 0.016809491 0.03479749
0.062383823 -0.24957187 0.039759286 -0.060459286 -0.08670162 -0.1526665 0.1352271 -0.15606815
0.011830388 0.12471176 -0.06337114 0.06595594 -0.018344743 -0.059208307 -0.059580024 -0.051818166
-0.062210955 0.03650012 -0.03703569 0.13782533 -0.2037204 0.0045882547 0.098495714 -0.048744902
-0.037189223 -0.27703577 0.24388073 0.0073057157 0.010276025 -0.15510169 0.013834222 0.08266141
0.059841916 -0.0447444 -0.48583928 0.06516024 -0.08143983 -0.28918615 0.0023512798 -0.14155646
-0.24372141 0.019595768 0.04363611 -0.06875894 -0.08400194 -0.0062938193 -0.19268893 0.15335503
-0.037282012 0.042833228 0.07124643 -0.009478235 -0.31363153 -0.4347598 -0.26198986 -0.035256073
0.015379884 0.1887161 -0.094937846 -0.11503092 -0.088427685 -0.052744776 0.034778427 0.052888196
0.014978144 -0.2935705 -0.012158878 -0.078269474 -0.0021602244 -0.07034289 0.020553777 -0.10621064
0.02201775 0.10822017 0.020728903 0.028236367 0.018407628 -0.31643894 0.03769843 -0.13409619
-0.04012918 0.09608244 -0.038474064 0.06314005 0.043983232 -0.09256691 -0.0057580285 -0.0033940463
-0.09324737 -0.067033425 0.20097302 -0.16120355 0.005659719 -0.19873267 -0.1593105 0.0538979
0.07759927 0.103047796 -0.20655932 0.08324483 -0.24282613 -0.23163828 -0.07398647 0.0011881049
-0.20956777 0.08274942 -0.031559367 0.0045082998 0.013763741 0.09957194 0.04462415 0.18932225
-0.06246068 -0.05234865 0.0789826 0.0010964996 -0.14225192 -0.39981106 -0.18712452 -0.0873015
-0.04704206 0.29696834 -0.0017520584 -0.2894402 0.020959089 0.04621291 0.046989303 -0.101029985
0.13311575 -0.09834393 -0.03844558 -0.008386524 0.049199954 0.07523697 -0.04116644 0.041598022
0.005458212 0.06500338 0.087912984 0.011211293 0.054599542 -0.37529707 0.034130756 -0.11185965
0.0104506165 0.02723411 -0.00048898754 0.02399271 0.19054633 -0.14599559 0.004909446 0.036521755
-0.15650426 0.004975125 0.13505778 -0.17669158 0.06731594 0.006897104 -0.08984447 -0.10462264
0.1250857 -0.015409929 -0.06150719 0.09409352 -0.079478785 -0.04523753 0.0015898081 0.28155696
-0.24257912 0.051931974 -0.010132576 -0.10361354 -0.02901737 -0.0586177 -0.015010326 0.04638612
-0.035422515 0.016905623 0.10936005 -0.06656106 -0.18841451 -0.45222247 -0.13737394 0.046431553
-0.1493988 -0.031907264 -0.059488114 -0.15490103 -0.15494557 -0.3246323 -0.16789952 0.021500692
-0.09453127 -0.026433587 -0.19829215 -0.11127954 0.025082933 -0.07286428 -0.0487981 -0.21012335
-0.06538318 0.011438869 -0.00013276935 0.015814746 -0.00046464446 -0.0900073 0.005606001 0.06062773
-0.14386168 0.0514579 -0.04355682 -0.07058025 -0.12981315 0.075547196 0.0692226 0.05583927
0.063902915 -0.20246512 -0.005789235 -0.22096312 -0.02477409 -0.26626852 0.03967649 -0.17012832
-0.08971653 -0.05918356 -0.31837508 -0.090125464 -0.23572782 -0.15103249 -0.048305575 -0.25008097
00000000: dd84 97be 6aa5 4f3d 1569 5d3d b6f0 0dbe
00000010: 7601 b4bd 28b6 cd3b 3a5f 82be 572f b63d
00000020: a105 1b3b 56ab e53d 6197 7cbd 911f ac3c
00000030: 99ba b3be 3f74 d9be 7b7c 98be f129 8abd
00000040: b6cb 24bd f325 9f3d 093c 13bc 1891 92bc
00000050: b2f2 b93a ecd5 f8bd 0fb4 893c d087 0e3d
00000060: 2e86 7f3d c58f 7fbe a2da 223d 28a4 77bd
00000070: 9e90 b1bd 9b54 1cbe f978 0a3e 54d0 1fbe
00000080: 3ed4 413c e168 ff3d bac8 81bd e813 873d
00000090: b747 96bc 6984 72bd 2f0a 74bd 493f 54bd
000000a0: ead0 7ebd 2681 153d bcb2 17bd 1522 0d3e
000000b0: 159c 50be 1259 963b 1fb8 c93d bca8 47bd
000000c0: ba53 18bd a2d7 8dbe dfbb 793e c964 ef3b
000000d0: c65c 283c fad2 1ebe efa8 623c 634a a93d
000000e0: cc1c 753d e745 37bd edbf f8be bb72 853d
000000f0: edc9 a6bd 3510 94be ee17 1a3b 2df4 10be
00000100: 1b92 79be 4e87 a03c c7bb 323d 7dd1 8cbd
00000110: 3609 acbd 623c cebb 3f50 45be 1a09 1d3e
00000120: 06b5 18bd e571 2f3d a6e9 913d 994a 1bbc
00000130: 5094 a0be d698 debe 8923 86be ac68 10bd
00000140: e9fb 7b3c cb3e 413e c66e c2bd 5595 ebbd
00000150: 9319 b5bd e80a 58bd d373 0e3d 4ba1 583d
00000160: e466 753c df4e 96be 0836 47bc bf4b a0bd
00000170: 8d92 0dbb ef0f 90bd 6560 a83c f784 d9bd
00000180: 925e b43c 89a2 dd3d a9cf a93c f44f e73c
00000190: 98cb 963c 4904 a2be ab69 1a3d 8350 09be
000001a0: 7f5e 24bd dfc6 c43d fb96 1dbd 924f 813d
000001b0: c327 343d b893 bdbd d8ad bcbb a66e 5ebb
000001c0: 7af8 bebd d248 89bd dfcb 4d3e 8b12 25be
000001d0: 2a75 b93b 9480 4bbe 4b22 23be 0bc4 5c3d
000001e0: 5eec 9e3d b90a d33d 4984 53be 447c aa3d
000001f0: 6aa7 78be 9632 6dbe 3886 97bd 2fba 9b3a
00000200: ef98 56be 8778 a93d 6544 01bd 5cba 933b
00000210: 5081 613c 60ec cb3d d0c7 363d b1dd 413e
00000220: c5d6 7fbd 8a6b 56bd a1c1 a13d 6cb8 8f3a
00000230: 7daa 11be 09b4 ccbe 929d 3fbe 21cb b2bd
00000240: 2daf 40bd 3c0c 983e 53a5 e5ba 8231 94be
00000250: 65b2 ab3c c049 3d3d db77 403d cfe8 cebd
00000260: 7f4f 083e 8b68 c9bd 1d79 1dbd a267 09bc
00000270: e485 493d d715 9a3d 249e 28bd b062 2a3d
00000280: cdda b23b 7e20 853d b90b b43d 92af 373c
00000290: c5a3 5f3d f026 c0be b1cc 0b3d ac16 e5bd
000002a0: 1039 2b3c 111a df3c 662f 00ba 5c8c c43c
000002b0: 941e 433e de7f 15be 6bdf a03b d697 153d
000002c0: a742 20be 6006 a33b 964c 0a3e a3ee 34be
000002d0: f1dc 893d 1a01 e23b 6100 b8bd 6544 d6bd
000002e0: 7716 003e ed79 7cbc f7ee 7bbd 1ab4 c03d
000002f0: c6c5 a2bd fd4a 39bd 1c61 d03a 3c28 903e
00000300: a966 78be 9fb6 543d 1b03 26bc 5633 d4bd
00000310: d6b5 edbc 1d19 70bd dfed 75bc 5fff 3d3d
00000320: 3317 11bd a97d 8a3c 29f8 df3d 2a51 88bd
00000330: bcef 40be b489 e7be c1ab 0cbe 032f 3e3d
00000340: 00fc 18be 31b1 02bd cfa9 73bd 609e 1ebe
00000350: 0daa 1ebe 3436 a6be daed 2bbe 3822 b03c
00000360: 9c99 c1bd 408b d8bc 190d 4bbe 87e6 e3bd
00000370: b97a cd3c de39 95bd 84e0 47bd 932a 57be
00000380: 9ee7 85bd 186a 3b3c 0038 0bb9 ed8d 813c
00000390: 869b f3b9 bf55 b8bd 8bb2 b73b c854 783d
000003a0: 7a50 13be 85c5 523d a368 32bd 618c 90bd
000003b0: bded 04be 7db8 9a3d 94c4 8d3d b8b7 643d
000003c0: 88df 823d 0453 4fbe 9fb3 bdbb 2844 62be
000003d0: 08f3 cabc 5954 88be d183 223d 1e36 2ebe
000003e0: 4dbd b7bd 766a 72bd 0f02 a3be b393 b8bd
000003f0: a262 71be 43a8 1abe 11dc 45bd 9d0a 80be
